…
Do you wish to run the custom code? [y/N] y
The repository for deepseek-ai/deepseek-moe-16b-base contains custom code which must be executed to correctly load the model. You can inspect the repository content at https://hf.co/deepseek-ai/deepseek-moe-16b-base.
You can avoid this prompt in future by passing the argument `trust_remote_code=True`.

Do you wish to run the custom code? [y/N] y
Loading checkpoint shards: 100%|█████████████████████████████████████████████████████████████████████████████████████████████████| 7/7 [00:09<00:00,  1.29s/it]
DeepseekForCausalLM(
  (model): DeepseekModel(
    (embed_tokens): Embedding(102400, 2048)
    (layers): ModuleList(
      (0): DeepseekDecoderLayer(
        (self_attn): DeepseekSdpaAttention(
          (q_proj): Linear(in_features=2048, out_features=2048, bias=False)
          (k_proj): Linear(in_features=2048, out_features=2048, bias=False)
          (v_proj): Linear(in_features=2048, out_features=2048, bias=False)
          (o_proj): Linear(in_features=2048, out_features=2048, bias=False)
          (rotary_emb): DeepseekRotaryEmbedding()
        )
        (mlp): DeepseekMLP(
          (gate_proj): Linear(in_features=2048, out_features=10944, bias=False)
          (up_proj): Linear(in_features=2048, out_features=10944, bias=False)
          (down_proj): Linear(in_features=10944, out_features=2048, bias=False)
          (act_fn): SiLU()
        )
        (input_layernorm): DeepseekRMSNorm()
        (post_attention_layernorm): DeepseekRMSNorm()
      ) // 0

      (1-27): 27 x DeepseekDecoderLayer(
        (self_attn): DeepseekSdpaAttention(
          (q_proj): Linear(in_features=2048, out_features=2048, bias=False)
          (k_proj): Linear(in_features=2048, out_features=2048, bias=False)
          (v_proj): Linear(in_features=2048, out_features=2048, bias=False)
          (o_proj): Linear(in_features=2048, out_features=2048, bias=False)
          (rotary_emb): DeepseekRotaryEmbedding()
        )
        (mlp): DeepseekMoE(
          (experts): ModuleList(
            (0-63): 64 x DeepseekMLP(
              (gate_proj): Linear(in_features=2048, out_features=1408, bias=False)
              (up_proj): Linear(in_features=2048, out_features=1408, bias=False)
              (down_proj): Linear(in_features=1408, out_features=2048, bias=False)
              (act_fn): SiLU()
            )
          )
          (gate): MoEGate()
          (shared_experts): DeepseekMLP(
            (gate_proj): Linear(in_features=2048, out_features=2816, bias=False)
            (up_proj): Linear(in_features=2048, out_features=2816, bias=False)
            (down_proj): Linear(in_features=2816, out_features=2048, bias=False)
            (act_fn): SiLU()
          )
        )
        (input_layernorm): DeepseekRMSNorm()
        (post_attention_layernorm): DeepseekRMSNorm()
      ) //1-27
    )
    (norm): DeepseekRMSNorm()
  )
  (lm_head): Linear(in_features=2048, out_features=102400, bias=False)
)
2025-02-16 13:21:42.399518
Traceback (most recent call last):
  File "/mnt/yzh/test/accelearte.py", line 18, in <module>
    print(torch.cuda.memory_status([0,1,2,3]))
AttributeError: module 'torch.cuda' has no attribute 'memory_status'. Did you mean: 'memory_stats'?
(torch240) potato@aliyun:/mnt/yzh/test$ vim accelearte.py
(torch240) potato@aliyun:/mnt/yzh/test$ python accelearte.py
…
